Logs from runs/Mar07_15-06-46_n-62-11-16
DQN.py --task train --files data/filenames/training.txt data/filenames/training_landmark.txt --model_name CommNet --landmarks 0 1 2 3 4 5 --multiscale --viz 0 --train_freq 50 --write

Using cuda
CommNet(
  (conv0): Conv3d(4, 32, kernel_size=(5, 5, 5), stride=(1, 1, 1), padding=(1, 1, 1))
  (maxpool0): MaxPool3d(kernel_size=(2, 2, 2), stride=(2, 2, 2), padding=0, dilation=1, ceil_mode=False)
  (prelu0): PReLU(num_parameters=1)
  (conv1): Conv3d(32, 32, kernel_size=(5, 5, 5), stride=(1, 1, 1), padding=(1, 1, 1))
  (maxpool1): MaxPool3d(kernel_size=(2, 2, 2), stride=(2, 2, 2), padding=0, dilation=1, ceil_mode=False)
  (prelu1): PReLU(num_parameters=1)
  (conv2): Conv3d(32, 64, kernel_size=(4, 4, 4), stride=(1, 1, 1), padding=(1, 1, 1))
  (maxpool2): MaxPool3d(kernel_size=(2, 2, 2), stride=(2, 2, 2), padding=0, dilation=1, ceil_mode=False)
  (prelu2): PReLU(num_parameters=1)
  (conv3): Conv3d(64, 64, kernel_size=(3, 3, 3), stride=(1, 1, 1))
  (prelu3): PReLU(num_parameters=1)
  (fc1): ModuleList(
    (0): Linear(in_features=1024, out_features=256, bias=True)
    (1): Linear(in_features=1024, out_features=256, bias=True)
    (2): Linear(in_features=1024, out_features=256, bias=True)
    (3): Linear(in_features=1024, out_features=256, bias=True)
    (4): Linear(in_features=1024, out_features=256, bias=True)
    (5): Linear(in_features=1024, out_features=256, bias=True)
  )
  (prelu4): ModuleList(
    (0): PReLU(num_parameters=1)
    (1): PReLU(num_parameters=1)
    (2): PReLU(num_parameters=1)
    (3): PReLU(num_parameters=1)
    (4): PReLU(num_parameters=1)
    (5): PReLU(num_parameters=1)
  )
  (fc2): ModuleList(
    (0): Linear(in_features=512, out_features=128, bias=True)
    (1): Linear(in_features=512, out_features=128, bias=True)
    (2): Linear(in_features=512, out_features=128, bias=True)
    (3): Linear(in_features=512, out_features=128, bias=True)
    (4): Linear(in_features=512, out_features=128, bias=True)
    (5): Linear(in_features=512, out_features=128, bias=True)
  )
  (prelu5): ModuleList(
    (0): PReLU(num_parameters=1)
    (1): PReLU(num_parameters=1)
    (2): PReLU(num_parameters=1)
    (3): PReLU(num_parameters=1)
    (4): PReLU(num_parameters=1)
    (5): PReLU(num_parameters=1)
  )
  (fc3): ModuleList(
    (0): Linear(in_features=256, out_features=6, bias=True)
    (1): Linear(in_features=256, out_features=6, bias=True)
    (2): Linear(in_features=256, out_features=6, bias=True)
    (3): Linear(in_features=256, out_features=6, bias=True)
    (4): Linear(in_features=256, out_features=6, bias=True)
    (5): Linear(in_features=256, out_features=6, bias=True)
  )
)
Initialising memory buffer...
